…
I0409 15:07:32.357224 105581 net.cpp:296] The NetState phase (0) differed from the phase (1) specified by a rule in layer mnist
I0409 15:07:32.357470 105581 net.cpp:296] The NetState phase (0) differed from the phase (1) specified by a rule in layer accuracy
I0409 15:07:32.357519 105581 net.cpp:53] Initializing net from parameters:
name: "LeNet"
state {
  phase: TRAIN
  level: 0
  stage: ""
}
layer {
  name: "mnist"
  type: "Data"
  top: "data"
  top: "label"
  include {
    phase: TRAIN
  }
  transform_param {
    scale: 0.00390625
  }
  data_param {
    source: "examples/mnist/mnist_train_lmdb"
    batch_size: 64
    backend: LMDB
  }
}
layer {
  name: "conv1"
  type: "Convolution"
  bottom: "data"
  top: "conv1"
  param {
    lr_mult: 1
  }
  param {
    lr_mult: 2
  }
  convolution_param {
    num_output: 20
    kernel_size: 5
    stride: 1
    weight_filler {
      type: "xavier"
    }
    bias_filler {
      type: "constant"
    }
  }
}
layer {
  name: "pool1"
  type: "Pooling"
  bottom: "conv1"
  top: "pool1"
  pooling_param {
    pool: MAX
    kernel_size: 2
    stride: 2
  }
}
layer {
  name: "conv2"
  type: "Convolution"
  bottom: "pool1"
  top: "conv2"
  param {
    lr_mult: 1
  }
  param {
    lr_mult: 2
  }
  convolution_param {
    num_output: 50
    kernel_size: 5
    stride: 1
    weight_filler {
      type: "xavier"
    }
    bias_filler {
      type: "constant"
    }
  }
}
layer {
  name: "pool2"
  type: "Pooling"
  bottom: "conv2"
  top: "pool2"
  pooling_param {
    pool: MAX
    kernel_size: 2
    stride: 2
  }
}
layer {
  name: "ip1"
  type: "InnerProduct"
  bottom: "pool2"
  top: "ip1"
  param {
    lr_mult: 1
  }
  param {
    lr_mult: 2
  }
  inner_product_param {
    num_output: 500
    weight_filler {
      type: "xavier"
    }
    bias_filler {
      type: "constant"
    }
  }
}
layer {
  name: "relu1"
  type: "ReLU"
  bottom: "ip1"
  top: "ip1"
}
layer {
  name: "ip2"
  type: "InnerProduct"
  bottom: "ip1"
  top: "ip2"
  param {
    lr_mult: 1
  }
  param {
    lr_mult: 2
  }
  inner_product_param {
    num_output: 10
    weight_filler {
      type: "xavier"
    }
    bias_filler {
      type: "constant"
    }
  }
}
layer {
  name: "loss"
  type: "SoftmaxWithLoss"
  bottom: "ip2"
  bottom: "label"
  top: "loss"
}
I0409 15:07:32.358144 105581 layer_factory.hpp:77] Creating layer mnist
I0409 15:07:32.358413 105581 db_lmdb.cpp:35] Opened lmdb examples/mnist/mnist_train_lmdb
I0409 15:07:32.358536 105581 net.cpp:86] Creating Layer mnist
I0409 15:07:32.358592 105581 net.cpp:382] mnist -> data
I0409 15:07:32.358803 105581 net.cpp:382] mnist -> label
I0409 15:07:32.358973 105581 data_layer.cpp:45] output data size: 64,1,28,28
I0409 15:07:32.359985 105581 base_data_layer.cpp:72] Initializing prefetch
I0409 15:07:32.360329 105581 base_data_layer.cpp:75] Prefetch initialized.
I0409 15:07:32.360357 105581 net.cpp:124] Setting up mnist
I0409 15:07:32.360401 105581 net.cpp:131] Top shape: 64 1 28 28 (50176)
I0409 15:07:32.360435 105581 net.cpp:131] Top shape: 64 (64)
I0409 15:07:32.360457 105581 net.cpp:139] Memory required for data: 200960
I0409 15:07:32.360513 105581 layer_factory.hpp:77] Creating layer conv1
I0409 15:07:32.360586 105581 net.cpp:86] Creating Layer conv1
I0409 15:07:32.360630 105581 net.cpp:408] conv1 <- data
I0409 15:07:32.360705 105581 net.cpp:382] conv1 -> conv1
I0409 15:07:32.360980 105581 net.cpp:124] Setting up conv1
I0409 15:07:32.361012 105581 net.cpp:131] Top shape: 64 20 24 24 (737280)
I0409 15:07:32.361037 105581 net.cpp:139] Memory required for data: 3150080
I0409 15:07:32.361140 105581 layer_factory.hpp:77] Creating layer pool1
I0409 15:07:32.361233 105581 net.cpp:86] Creating Layer pool1
I0409 15:07:32.361265 105581 net.cpp:408] pool1 <- conv1
I0409 15:07:32.361317 105581 net.cpp:382] pool1 -> pool1
I0409 15:07:32.361388 105581 net.cpp:124] Setting up pool1
I0409 15:07:32.361430 105581 net.cpp:131] Top shape: 64 20 12 12 (184320)
I0409 15:07:32.361492 105581 net.cpp:139] Memory required for data: 3887360
I0409 15:07:32.361523 105581 layer_factory.hpp:77] Creating layer conv2
I0409 15:07:32.361594 105581 net.cpp:86] Creating Layer conv2
I0409 15:07:32.361625 105581 net.cpp:408] conv2 <- pool1
I0409 15:07:32.361678 105581 net.cpp:382] conv2 -> conv2
I0409 15:07:32.364238 105581 net.cpp:124] Setting up conv2
I0409 15:07:32.364312 105581 net.cpp:131] Top shape: 64 50 8 8 (204800)
I0409 15:07:32.364902 105581 net.cpp:139] Memory required for data: 4706560
I0409 15:07:32.365393 105581 layer_factory.hpp:77] Creating layer pool2
I0409 15:07:32.365614 105581 net.cpp:86] Creating Layer pool2
I0409 15:07:32.365649 105581 net.cpp:408] pool2 <- conv2
I0409 15:07:32.365700 105581 net.cpp:382] pool2 -> pool2
I0409 15:07:32.365763 105581 net.cpp:124] Setting up pool2
I0409 15:07:32.365793 105581 net.cpp:131] Top shape: 64 50 4 4 (51200)
I0409 15:07:32.366082 105581 net.cpp:139] Memory required for data: 4911360
I0409 15:07:32.365130 105582 data_layer.cpp:128] Prefetch batch: 2 ms.
I0409 15:07:32.366195 105582 data_layer.cpp:129]      Read time: 0.559 ms.
I0409 15:07:32.366235 105582 data_layer.cpp:130] Transform time: 1.136 ms.
I0409 15:07:32.366113 105581 layer_factory.hpp:77] Creating layer ip1
I0409 15:07:32.367005 105581 net.cpp:86] Creating Layer ip1
I0409 15:07:32.367275 105581 net.cpp:408] ip1 <- pool2
I0409 15:07:32.367614 105581 net.cpp:382] ip1 -> ip1
I0409 15:07:32.369387 105582 data_layer.cpp:128] Prefetch batch: 2 ms.
I0409 15:07:32.369490 105582 data_layer.cpp:129]      Read time: 0.236 ms.
I0409 15:07:32.369524 105582 data_layer.cpp:130] Transform time: 2.192 ms.
I0409 15:07:32.371413 105582 data_layer.cpp:128] Prefetch batch: 1 ms.
I0409 15:07:32.371542 105582 data_layer.cpp:129]      Read time: 0.417 ms.
I0409 15:07:32.371577 105582 data_layer.cpp:130] Transform time: 1.094 ms.
I0409 15:07:32.374038 105582 data_layer.cpp:128] Prefetch batch: 2 ms.
I0409 15:07:32.374100 105582 data_layer.cpp:129]      Read time: 0.514 ms.
I0409 15:07:32.374132 105582 data_layer.cpp:130] Transform time: 1.175 ms.
I0409 15:07:32.406618 105581 net.cpp:124] Setting up ip1
I0409 15:07:32.406703 105581 net.cpp:131] Top shape: 64 500 (32000)
I0409 15:07:32.406729 105581 net.cpp:139] Memory required for data: 5039360
I0409 15:07:32.406810 105581 layer_factory.hpp:77] Creating layer relu1
I0409 15:07:32.406874 105581 net.cpp:86] Creating Layer relu1
I0409 15:07:32.406905 105581 net.cpp:408] relu1 <- ip1
I0409 15:07:32.406949 105581 net.cpp:369] relu1 -> ip1 (in-place)
I0409 15:07:32.406996 105581 net.cpp:124] Setting up relu1
I0409 15:07:32.407016 105581 net.cpp:131] Top shape: 64 500 (32000)
I0409 15:07:32.407035 105581 net.cpp:139] Memory required for data: 5167360
I0409 15:07:32.407057 105581 layer_factory.hpp:77] Creating layer ip2
I0409 15:07:32.407099 105581 net.cpp:86] Creating Layer ip2
I0409 15:07:32.407125 105581 net.cpp:408] ip2 <- ip1
I0409 15:07:32.407169 105581 net.cpp:382] ip2 -> ip2
I0409 15:07:32.408130 105581 net.cpp:124] Setting up ip2
I0409 15:07:32.408162 105581 net.cpp:131] Top shape: 64 10 (640)
I0409 15:07:32.408183 105581 net.cpp:139] Memory required for data: 5169920
I0409 15:07:32.408219 105581 layer_factory.hpp:77] Creating layer loss
I0409 15:07:32.408277 105581 net.cpp:86] Creating Layer loss
I0409 15:07:32.408303 105581 net.cpp:408] loss <- ip2
I0409 15:07:32.408339 105581 net.cpp:408] loss <- label
I0409 15:07:32.408382 105581 net.cpp:382] loss -> loss
I0409 15:07:32.408447 105581 layer_factory.hpp:77] Creating layer loss
…
I0409 15:07:32.410764 105581 solver.cpp:190] Creating test net (#0) specified by net file: examples/mnist/lenet_train_test.prototxt
I0409 15:07:32.411051 105581 net.cpp:296] The NetState phase (1) differed from the phase (0) specified by a rule in layer mnist
I0409 15:07:32.411177 105581 net.cpp:53] Initializing net from parameters:
name: "LeNet"
state {
  phase: TEST
}
layer {
  name: "mnist"
  type: "Data"
  top: "data"
  top: "label"
  include {
    phase: TEST
  }
  transform_param {
    scale: 0.00390625
  }
  data_param {
    source: "examples/mnist/mnist_test_lmdb"
    batch_size: 100
    backend: LMDB
  }
}
layer {
  name: "conv1"
  type: "Convolution"
  bottom: "data"
  top: "conv1"
  param {
    lr_mult: 1
  }
  param {
    lr_mult: 2
  }
  convolution_param {
    num_output: 20
    kernel_size: 5
    stride: 1
    weight_filler {
      type: "xavier"
    }
    bias_filler {
      type: "constant"
    }
  }
}
layer {
  name: "pool1"
  type: "Pooling"
  bottom: "conv1"
  top: "pool1"
  pooling_param {
    pool: MAX
    kernel_size: 2
    stride: 2
  }
}
layer {
  name: "conv2"
  type: "Convolution"
  bottom: "pool1"
  top: "conv2"
  param {
    lr_mult: 1
  }
  param {
    lr_mult: 2
  }
  convolution_param {
    num_output: 50
    kernel_size: 5
    stride: 1
    weight_filler {
      type: "xavier"
    }
    bias_filler {
      type: "constant"
    }
  }
}
layer {
  name: "pool2"
  type: "Pooling"
  bottom: "conv2"
  top: "pool2"
  pooling_param {
    pool: MAX
    kernel_size: 2
    stride: 2
  }
}
layer {
  name: "ip1"
  type: "InnerProduct"
  bottom: "pool2"
  top: "ip1"
  param {
    lr_mult: 1
  }
  param {
    lr_mult: 2
  }
  inner_product_param {
    num_output: 500
    weight_filler {
      type: "xavier"
    }
    bias_filler {
      type: "constant"
    }
  }
}
layer {
  name: "relu1"
  type: "ReLU"
  bottom: "ip1"
  top: "ip1"
}
layer {
  name: "ip2"
  type: "InnerProduct"
  bottom: "ip1"
  top: "ip2"
  param {
    lr_mult: 1
  }
  param {
    lr_mult: 2
  }
  inner_product_param {
    num_output: 10
    weight_filler {
      type: "xavier"
    }
    bias_filler {
      type: "constant"
    }
  }
}
layer {
  name: "accuracy"
  type: "Accuracy"
  bottom: "ip2"
  bottom: "label"
  top: "accuracy"
  include {
    phase: TEST
  }
}
layer {
  name: "loss"
  type: "SoftmaxWithLoss"
  bottom: "ip2"
  bottom: "label"
  top: "loss"
}
I0409 15:07:32.412261 105581 layer_factory.hpp:77] Creating layer mnist
I0409 15:07:32.412571 105581 db_lmdb.cpp:35] Opened lmdb examples/mnist/mnist_test_lmdb
I0409 15:07:32.412648 105581 net.cpp:86] Creating Layer mnist
I0409 15:07:32.412686 105581 net.cpp:382] mnist -> data
I0409 15:07:32.412802 105581 net.cpp:382] mnist -> label
I0409 15:07:32.412943 105581 data_layer.cpp:45] output data size: 100,1,28,28
I0409 15:07:32.414396 105581 base_data_layer.cpp:72] Initializing prefetch
I0409 15:07:32.414556 105581 base_data_layer.cpp:75] Prefetch initialized.
I0409 15:07:32.414598 105581 net.cpp:124] Setting up mnist
I0409 15:07:32.414628 105581 net.cpp:131] Top shape: 100 1 28 28 (78400)
I0409 15:07:32.414671 105581 net.cpp:131] Top shape: 100 (100)
I0409 15:07:32.414710 105581 net.cpp:139] Memory required for data: 314000
I0409 15:07:32.414795 105581 layer_factory.hpp:77] Creating layer label_mnist_1_split
I0409 15:07:32.414877 105581 net.cpp:86] Creating Layer label_mnist_1_split
I0409 15:07:32.414911 105581 net.cpp:408] label_mnist_1_split <- label
I0409 15:07:32.415009 105581 net.cpp:382] label_mnist_1_split -> label_mnist_1_split_0
I0409 15:07:32.415117 105581 net.cpp:382] label_mnist_1_split -> label_mnist_1_split_1
I0409 15:07:32.415196 105581 net.cpp:124] Setting up label_mnist_1_split
I0409 15:07:32.415272 105581 net.cpp:131] Top shape: 100 (100)
I0409 15:07:32.415310 105581 net.cpp:131] Top shape: 100 (100)
I0409 15:07:32.415393 105581 net.cpp:139] Memory required for data: 314800
I0409 15:07:32.415427 105581 layer_factory.hpp:77] Creating layer conv1
I0409 15:07:32.415567 105581 net.cpp:86] Creating Layer conv1
I0409 15:07:32.415663 105581 net.cpp:408] conv1 <- data
I0409 15:07:32.415726 105581 net.cpp:382] conv1 -> conv1
I0409 15:07:32.416124 105581 net.cpp:124] Setting up conv1
I0409 15:07:32.416187 105581 net.cpp:131] Top shape: 100 20 24 24 (1152000)
I0409 15:07:32.416222 105581 net.cpp:139] Memory required for data: 4922800
I0409 15:07:32.416294 105581 layer_factory.hpp:77] Creating layer pool1
I0409 15:07:32.416353 105581 net.cpp:86] Creating Layer pool1
I0409 15:07:32.416501 105581 net.cpp:408] pool1 <- conv1
I0409 15:07:32.416561 105581 net.cpp:382] pool1 -> pool1
I0409 15:07:32.416635 105581 net.cpp:124] Setting up pool1
I0409 15:07:32.416674 105581 net.cpp:131] Top shape: 100 20 12 12 (288000)
I0409 15:07:32.416707 105581 net.cpp:139] Memory required for data: 6074800
I0409 15:07:32.416739 105581 layer_factory.hpp:77] Creating layer conv2
I0409 15:07:32.416808 105581 net.cpp:86] Creating Layer conv2
I0409 15:07:32.416851 105581 net.cpp:408] conv2 <- pool1
I0409 15:07:32.416911 105581 net.cpp:382] conv2 -> conv2
I0409 15:07:32.419497 105581 net.cpp:124] Setting up conv2
I0409 15:07:32.419692 105581 net.cpp:131] Top shape: 100 50 8 8 (320000)
I0409 15:07:32.419728 105581 net.cpp:139] Memory required for data: 7354800
I0409 15:07:32.419796 105581 layer_factory.hpp:77] Creating layer pool2
I0409 15:07:32.420001 105581 net.cpp:86] Creating Layer pool2
I0409 15:07:32.420092 105581 net.cpp:408] pool2 <- conv2
I0409 15:07:32.420181 105581 net.cpp:382] pool2 -> pool2
I0409 15:07:32.420276 105581 net.cpp:124] Setting up pool2
I0409 15:07:32.420317 105581 net.cpp:131] Top shape: 100 50 4 4 (80000)
I0409 15:07:32.420390 105581 net.cpp:139] Memory required for data: 7674800
I0409 15:07:32.420424 105581 layer_factory.hpp:77] Creating layer ip1
I0409 15:07:32.420547 105581 net.cpp:86] Creating Layer ip1
I0409 15:07:32.420590 105581 net.cpp:408] ip1 <- pool2
I0409 15:07:32.420650 105581 net.cpp:382] ip1 -> ip1
I0409 15:07:32.421988 105583 data_layer.cpp:128] Prefetch batch: 4 ms.
I0409 15:07:32.422044 105583 data_layer.cpp:129]      Read time: 0.521 ms.
I0409 15:07:32.422066 105583 data_layer.cpp:130] Transform time: 2.887 ms.
I0409 15:07:32.424991 105583 data_layer.cpp:128] Prefetch batch: 2 ms.
I0409 15:07:32.425058 105583 data_layer.cpp:129]      Read time: 0.341 ms.
I0409 15:07:32.425397 105583 data_layer.cpp:130] Transform time: 2.026 ms.
I0409 15:07:32.428709 105583 data_layer.cpp:128] Prefetch batch: 2 ms.
I0409 15:07:32.428757 105583 data_layer.cpp:129]      Read time: 0.35 ms.
I0409 15:07:32.428779 105583 data_layer.cpp:130] Transform time: 1.896 ms.
I0409 15:07:32.431769 105583 data_layer.cpp:128] Prefetch batch: 2 ms.
I0409 15:07:32.431818 105583 data_layer.cpp:129]      Read time: 0.344 ms.
I0409 15:07:32.432194 105583 data_layer.cpp:130] Transform time: 1.882 ms.
I0409 15:07:32.460477 105581 net.cpp:124] Setting up ip1
I0409 15:07:32.460611 105581 net.cpp:131] Top shape: 100 500 (50000)
I0409 15:07:32.460641 105581 net.cpp:139] Memory required for data: 7874800
I0409 15:07:32.460749 105581 layer_factory.hpp:77] Creating layer relu1
I0409 15:07:32.460849 105581 net.cpp:86] Creating Layer relu1
I0409 15:07:32.460911 105581 net.cpp:408] relu1 <- ip1
I0409 15:07:32.461016 105581 net.cpp:369] relu1 -> ip1 (in-place)
I0409 15:07:32.461181 105581 net.cpp:124] Setting up relu1
I0409 15:07:32.461205 105581 net.cpp:131] Top shape: 100 500 (50000)
I0409 15:07:32.461277 105581 net.cpp:139] Memory required for data: 8074800
I0409 15:07:32.461325 105581 layer_factory.hpp:77] Creating layer ip2
I0409 15:07:32.461411 105581 net.cpp:86] Creating Layer ip2
I0409 15:07:32.461450 105581 net.cpp:408] ip2 <- ip1
I0409 15:07:32.461601 105581 net.cpp:382] ip2 -> ip2
I0409 15:07:32.462286 105581 net.cpp:124] Setting up ip2
I0409 15:07:32.462343 105581 net.cpp:131] Top shape: 100 10 (1000)
I0409 15:07:32.462368 105581 net.cpp:139] Memory required for data: 8078800
I0409 15:07:32.462426 105581 layer_factory.hpp:77] Creating layer ip2_ip2_0_split
I0409 15:07:32.462512 105581 net.cpp:86] Creating Layer ip2_ip2_0_split
I0409 15:07:32.462559 105581 net.cpp:408] ip2_ip2_0_split <- ip2
I0409 15:07:32.462631 105581 net.cpp:382] ip2_ip2_0_split -> ip2_ip2_0_split_0
I0409 15:07:32.462733 105581 net.cpp:382] ip2_ip2_0_split -> ip2_ip2_0_split_1
I0409 15:07:32.462811 105581 net.cpp:124] Setting up ip2_ip2_0_split
I0409 15:07:32.462862 105581 net.cpp:131] Top shape: 100 10 (1000)
I0409 15:07:32.462906 105581 net.cpp:131] Top shape: 100 10 (1000)
I0409 15:07:32.462947 105581 net.cpp:139] Memory required for data: 8086800
I0409 15:07:32.462972 105581 layer_factory.hpp:77] Creating layer accuracy
I0409 15:07:32.463063 105581 net.cpp:86] Creating Layer accuracy
I0409 15:07:32.463114 105581 net.cpp:408] accuracy <- ip2_ip2_0_split_0
I0409 15:07:32.463174 105581 net.cpp:408] accuracy <- label_mnist_1_split_0
I0409 15:07:32.463255 105581 net.cpp:382] accuracy -> accuracy
…
